CNN/model.pkl (torch_old, 731933 bytes, 41 tensors)

weight f4 [32, 1, 3, 3]
000000 dd 76 04 be a0 81 87 3e cc 2e 71 3e 9b 32 9d 3e
       -0.12935968 0.26466084 0.23553008 0.3070267
000010 cf d8 2c 3e bb 54 92 be fd 6d 8e be ce e7 4d be
       0.16879581 -0.2858027 -0.2781829 -0.20107958
000020 e9 7c 5d 3e 61 a8 82 3e 0a 12 20 be 08 a5 97 be
       0.2162968 0.25519088 -0.15631881 -0.29618096
000030 35 1e 43 3e bf 8b 07 be 63 8f 25 be a3 98 3f 3e
       0.19054492 -0.13236903 -0.16167979 0.1871057
000040 8a 12 c2 3d 44 c4 6e 3e a1 71 82 3e d6 d5 14 3b
       0.09476192 0.23317057 0.25477317 0.0022710464
000050 e0 68 6f 3e 13 ac 8c be 54 ef 19 3e df 5d c1 3e
       0.2337985 -0.27475032 0.15032703 0.3776693
000060 1a e5 1c 3d 41 14 01 be 0b 1e 6e be e5 5e 81 be
       0.038304426 -0.12605383 -0.23253648 -0.2526771
000070 a6 b6 8f 3c da 25 bd 3d bd cc 68 be aa b1 a6 3e
       0.017543148 0.09235735 -0.22734351 0.32557422
000080 b6 38 41 3e 89 f9 2b 3e ca 18 43 be b8 6a 10 be
       0.1886929 0.16794409 -0.19052425 -0.1410321
000090 3e 86 c8 bd 26 09 07 be aa cc 96 be da a2 6c be
       -0.0979123 -0.13187084 -0.2945302 -0.23108998
0000a0 1c eb 8a bd e5 e9 7c be c0 59 16 be 5e 92 a4 be
       -0.06783125 -0.24698599 -0.14682674 -0.3214292
0000b0 16 59 73 3d f9 9f fd 3c 63 23 7f be 01 b8 a1 3e
       0.05941113 0.03096007 -0.24915843 0.31585696
0000c0 3a a5 23 3e e8 51 b8 bd ab 66 54 be e1 be 66 3e
       0.15980998 -0.089999974 -0.2074229 0.22533752
0000d0 87 5e fa bd 88 c2 e4 3e 6b b5 31 be 36 5b 22 3e
       -0.12225061 0.44679666 -0.17354362 0.15855107
0000e0 a0 37 67 bd d0 6b 49 be 99 74 c1 bd 73 ef 60 be
       -0.056449533 -0.19670033 -0.09446067 -0.21966343
0000f0 28 8d 59 be 91 1c 90 3e 51 07 61 be d9 a3 07 3f
       -0.21245253 0.28146794 -0.21975447 0.52984387
000100 fc d6 6b 3d 16 e3 00 3f 1b bb 9b 3e d5 76 1d 3d
       0.057578072 0.50346506 0.30416188 0.038443405
000110 7d 8e 06 3b 7a 58 b2 bd ac 9f 9e be d8 5d 96 be
       0.0020531707 -0.08708282 -0.30981195 -0.29368472
000120 4b 50 3e be 4e ef fe bd db 58 81 bc 9e d8 d3 3d
       -0.18585317 -0.124479875 -0.01578944 0.10344051
000130 ba ae 5e 3d 7c 84 14 3e ba 4b ba 3d 5c fc 87 3e
       0.05436585 0.14503664 0.09096475 0.26559722
000140 53 44 55 be 11 9d 4f 3e 46 15 97 3e 6d f4 e9 3e
       -0.20826845 0.2027476 0.29508418 0.45694295
000150 5d 01 59 be 3e 79 a4 be a6 0d f5 bd 86 40 4f 3e
       -0.21191926 -0.3212375 -0.11965494 0.20239457
000160 fa d6 00 3e b7 20 38 be 8b 2d e9 3e fe cb dd bd
       0.12582007 -0.1798123 0.4554256 -0.10829924
000170 55 e9 b3 3e d3 c7 7f 3e d6 ba a4 3e f3 4d 22 3e
       0.35138956 0.2497857 0.32173795 0.15850048
000180 63 b8 d7 bd 2d b0 bf be 69 1f 58 be f5 25 36 3e
       -0.10533216 -0.374391 -0.21105732 0.17787917
000190 44 59 83 3d b5 a0 95 3e 88 28 4a 3e e0 4c 82 3e
       0.064135104 0.29224172 0.19742024 0.25449276
0001a0 13 35 a7 3e 76 b8 f9 3d 3c ce 34 3e 92 23 fa bd
       0.3265768 0.12193386 0.17656797 -0.12213816
0001b0 a7 af ab 3d b0 ac 1d be d4 f9 76 be 18 a6 a9 be
       0.083831124 -0.15397906 -0.2411874 -0.33134532
0001c0 82 02 af be 9d cd 25 3e 48 9a 00 be c2 d3 38 be
       -0.341816 0.16191716 -0.12558854 -0.18049529
0001d0 bb 2a f8 bd 28 d5 7d 3e 07 d5 cf 3d f4 7c dc b9
       -0.12117525 0.24788344 0.101480536 -0.00042054767
0001e0 b9 6e 9e 3e 10 05 a9 3e 94 a0 fe 3c 44 f3 14 bd
       0.3094385 0.33011675 0.031082429 -0.03636481
0001f0 36 a2 b1 bb c2 68 74 bd 91 29 a7 3e 24 98 96 3e
       -0.0054209484 -0.059670217 0.326489 0.2941295
000200 b5 27 4c 3d 52 07 a8 bc 78 b6 9f 3d c7 b1 ab be
       0.049842555 -0.020511303 0.07798475 -0.3353407
000210 3f d2 59 be 9b 55 8d 3e 33 68 c3 bd 5b c7 65 3d
       -0.21271609 0.27604374 -0.09541359 0.056098323
000220 24 75 c5 3d b9 65 b9 3d 45 22 49 be 16 ac 85 3e
       0.096414834 0.09052605 -0.19641979 0.26107854
000230 79 da 06 3e bf 62 84 be 1f d9 99 be 80 c7 cc be
       0.13169278 -0.25856587 -0.30048463 -0.39995956
000240 2a fc 74 be e2 a1 bf be 58 e2 bd 3c 84 32 a7 3e
       -0.23924318 -0.37428194 0.023179218 0.32655728
000250 22 ff c0 3e 1f ee 30 3e 2f 06 ab be 57 15 5e 3e
       0.3769465 0.17278336 -0.33403155 0.21687828
000260 9d d3 35 bc 04 a0 47 3e 80 75 5c be 75 e6 d6 3d
       -0.011097816 0.19494635 -0.21529198 0.10493175
000270 b0 d2 11 3e 01 ab d2 bd 78 df 99 3e f9 3d d0 3d
       0.14240527 -0.10286523 0.30053306 0.1016807
000280 f4 48 41 3e 2c f1 62 bd 6f b9 5d 3d 4f 9b af 3e
       0.18875486 -0.05540578 0.05413192 0.3429818
000290 9a 03 8f bc f0 1e 7f be c7 04 af 3e bf a7 9c 3e
       -0.017457772 -0.24914145 0.34183332 0.3059673
0002a0 9f d2 4c 3e 4b 6a 88 be cb 57 a5 be de 3e b4 bd
       0.2000222 -0.26643595 -0.32293543 -0.088010535
0002b0 fa 79 34 3d 56 5e b8 3e 67 15 b7 be c3 29 39 3e
       0.04406164 0.36009473 -0.35758516 0.18082337
0002c0 09 e9 aa 3e 9c 07 3c 3d 17 72 5c be 9d e2 ad be
       0.33380917 0.045905694 -0.21527897 -0.33961955
0002d0 fd e7 95 bd cd fd c2 be 4c 5e 95 be 15 a4 24 be
       -0.07319639 -0.3808426 -0.29173505 -0.16078217
0002e0 c9 8e 26 be d6 1d 84 3d 63 14 18 bd 13 dd 85 3d
       -0.16265406 0.06451003 -0.037128817 0.06536307
0002f0 90 a9 a2 bd 24 d9 95 be 64 b5 95 bb 48 83 a1 be
       -0.07942498 -0.29267228 -0.0045687426 -0.31545472
000300 b5 cb 63 be 56 50 46 3e d5 ea 6e bc 13 2d 4c 3e
       -0.22245677 0.19366583 -0.0145823555 0.1993907
000310 ab e5 9c be 10 bb f3 bd 84 dd e6 bb 9a 79 1b be
       -0.30643973 -0.11900914 -0.0070454497 -0.15183106
000320 04 84 8c 3e f8 72 a0 be 58 4c 9a be 36 87 b3 be
       0.2744447 -0.31337714 -0.3013637 -0.35064095
000330 d9 d1 5a 3e 1b d5 48 3e e1 c3 06 3e 8d c6 95 3e
       0.21369113 0.19612543 0.1316066 0.29253045
000340 18 6d 07 3b 6f 8c 0b 3e 20 1a a4 bc 07 3b 9a 3e
       0.002066439 0.1362779 -0.020031989 0.3012316
000350 f3 20 86 3e 73 be 57 be cc 59 95 3e ea 79 2f be
       0.26197013 -0.21068744 0.29170072 -0.1713635
000360 73 4c 71 3e f1 80 c1 3d f7 ad 82 be b4 bd 05 3e
       0.2356432 0.09448422 -0.2552335 0.13060647
000370 24 08 30 bc 0f ef ad be b0 9e 89 be 6f 5a 8c be
       -0.010744128 -0.3397145 -0.2687888 -0.27412745
000380 23 9c 48 3d 08 30 86 3e 95 01 8d 3e a8 2b 4a 3e
       0.04897703 0.2620852 0.2754027 0.19743216
000390 02 04 53 be 1f 0b c8 bd b8 38 49 3e c2 ad d7 3d
       -0.20606998 -0.09767746 0.19650543 0.105311885
0003a0 bb 49 5a 3e 73 13 d7 be 44 9e 47 3e 88 24 90 3d
       0.21317188 -0.42007026 0.19493967 0.07038218
0003b0 00 8b 0b 3e 59 c8 64 3e 30 ab e7 3d 96 ca 84 3e
       0.13627243 0.22342052 0.11311948 0.2593581
0003c0 97 54 30 be f5 b7 89 3b c8 ca 44 be 3f cd 90 3e
       -0.17219768 0.0042028376 -0.1921798 0.2828159
0003d0 a1 37 b4 bd ae 22 96 be 48 ab b7 3c b8 24 52 be
       -0.08799673 -0.29323334 0.02242054 -0.2052182
0003e0 c7 d0 8c be 25 2a 52 bd 64 98 11 3e 9b f2 7a be
       -0.27503034 -0.051309723 0.14218289 -0.24506609
0003f0 8e c7 87 3e d1 9b 4f 3e ba 8f 76 3c d5 3c 10 3e
       0.26519436 0.20274283 0.0150489155 0.14085706

bias f4 [32]
000000 83 86 5b bd 87 0a 93 3d 8c 76 3c 3d 89 18 ad 3c
       -0.053595077 0.07179742 0.046011493 0.021129863
000010 0c d6 77 bd 9d 28 a3 3d 91 4a 8f 3d a0 25 94 be
       -0.060506865 0.07966731 0.06996644 -0.28934956
000020 01 fb a5 3e 50 97 58 be c9 07 03 be d6 bc a8 3e
       0.32418063 -0.21151471 -0.12795939 0.3295657
000030 1f 63 92 be cd 0d 40 3e 8c bf 71 be dd d4 1b be
       -0.28591248 0.18755265 -0.23608226 -0.1521792
000040 d2 c9 e9 3d 03 3b 71 be 58 85 7d 3e ab 20 56 be
       0.11415447 -0.23557667 0.24757898 -0.209109
000050 5f 1b c8 3d 78 28 9c be 7d c5 10 be f0 0d fc bc
       0.097708456 -0.30499625 -0.14137836 -0.030768365
000060 84 cb 52 be be a2 45 3e d8 f9 82 be e8 af 4e bd
       -0.20585448 0.19300362 -0.2558124 -0.050460726
000070 43 6a 95 be 8c 65 9f bd f4 dc 68 be 95 4c 3f 3e
       -0.29182634 -0.077830404 -0.22740537 0.18681557

weight f4 [32]
000000 3b ba 8c 3e d8 7d da 3e db 1c fb 3e 2f b8 67 3e
       0.27485833 0.42674136 0.49045452 0.22628854
000010 73 6e ab 3e 52 b8 09 3f 99 d7 20 3f 21 5f 81 3f
       0.33482704 0.53796875 0.62828976 1.0107156
000020 f2 cd 95 3e 53 df 34 3f 49 7d 59 3f d6 45 12 3f
       0.29258686 0.70653266 0.84956795 0.5713781
000030 84 30 39 3f ee ac e1 3e da 13 55 3e 39 4a 27 3f
       0.72339654 0.44077247 0.20808354 0.6534763
000040 43 39 e5 3e 1a 72 4f 3e f3 e1 e9 3e 3b 89 29 3f
       0.4477025 0.2025837 0.45680198 0.6622502
000050 e5 66 ee 3e 10 1e df 3e 5b 65 0c 3f 3b c2 2b 3f
       0.46562877 0.43577623 0.54842156 0.6709325
000060 3a e4 d9 3e 8a da 58 3f b5 ae d3 3e 17 b0 0e 3f
       0.42556936 0.84708464 0.41344228 0.5573744
000070 d4 a5 26 3f 42 f2 13 3e a0 44 00 3f 6d 26 17 3f
       0.65096784 0.14447883 0.50104713 0.5904301

bias f4 [32]
000000 f1 86 b4 bb 2d 70 d4 3c ed 94 10 bd d7 8f a6 3d
       -0.0055092503 0.025932396 -0.035298277 0.08132904
000010 73 60 80 bd 69 08 f5 bd c9 af 1d bd 13 7d a3 bd
       -0.06268396 -0.11964495 -0.03849772 -0.079828404
000020 2c 0d a0 3d 70 8f bd bd 0a 36 4b bc 1f fe 06 bd
       0.07815012 -0.09255874 -0.012403021 -0.032957193
000030 d1 df 7d bd f0 8c 80 bc 46 19 23 bd 9b 11 b9 bd
       -0.061981026 -0.015692204 -0.039819025 -0.09036561
000040 de df 83 3c de d8 b6 3c 78 58 21 3d be dd ab 3c
       0.01609796 0.022320207 0.03939101 0.020979758
000050 5f 24 ac bd f7 64 bc bd 34 01 f8 3b 84 d6 e7 bb
       -0.08405375 -0.09198945 0.007568503 -0.007075133
000060 5a 4f 63 bc 11 b4 61 bd 42 84 46 bd 5b cf 76 bd
       -0.013873899 -0.055103365 -0.048465975 -0.060256343
000070 c6 52 ad 3d aa fb 99 3c 7a ad 91 bd 9d 8d ef bc
       0.084630534 0.01879676 -0.07113166 -0.029242331

running_mean f4 [32]
000000 8f 95 35 3e 4a 03 7d 3e aa 6a bd 3e a0 40 de 3c
       0.17732833 0.24708286 0.3699544 0.027130425
000010 23 74 7f bf 99 57 e7 3e 8d 90 c8 be f9 13 91 3e
       -0.99786586 0.4518402 -0.39172783 0.2833555
000020 30 3a dc 3e ce 06 00 3e 83 23 de 3e 9e 5b b5 3f
       0.43013144 0.12502596 0.43386468 1.4168584
000030 08 41 8a bf 7b 70 5c 3f 81 4a 24 3d d0 2a eb be
       -1.0801096 0.8610913 0.040110115 -0.459311
000040 89 a3 81 3e 55 37 7b 3e 02 50 0c 3f 26 32 49 be
       0.2532008 0.24532826 0.5480958 -0.19648036
000050 de ba 11 bf 92 e5 5b bf fa 8e a9 be fb 50 1e 3f
       -0.5692576 -0.8589717 -0.33116895 0.61842316
000060 6b 58 1a bf 40 e0 15 3f 32 fd 60 3e 1a 8b fd be
       -0.60291165 0.58545303 0.21971586 -0.4952019
000070 76 74 b6 be 97 9e 89 3e 5f 5e 4b bf 9c f9 10 be
       -0.35635728 0.26878807 -0.79440874 -0.14157718

running_var f4 [32]
000000 25 87 82 3c 85 a5 69 3c da 24 ef 3c bf 1e 4a 3b
       0.015933583 0.014260654 0.029192377 0.003084108
000010 6e a9 9d 3e fb 1c f9 3c af 11 9f 3d 67 f8 cb 3d
       0.30793327 0.030409327 0.07767045 0.09959488
000020 34 05 c8 3b 7a f6 dc 3c 9a 7e b7 3d 94 5e 88 3e
       0.006104136 0.026972998 0.08959694 0.26634657
000030 d7 1a 65 3e 09 7b d9 3d 9f 42 b7 3c 7b 37 7d 3d
       0.2237352 0.1061917 0.022370635 0.06182049
000040 10 b4 52 3c 4b ae 53 3d 11 e4 db 3c 0c 9b 80 3c
       0.012860313 0.05167989 0.026842149 0.015698932
000050 af f2 28 3e 80 dd df 3d 65 05 b0 3c b7 c0 c7 3d
       0.16498826 0.1093092 0.021486947 0.09753554
000060 3c 57 8a 3d 77 f4 1b 3d de 51 69 3d b3 a5 a9 3d
       0.0675492 0.038074937 0.05696284 0.08283558
000070 cd 3d e6 3c 16 2f e4 3c 6a 15 e6 3d 79 10 97 3d
       0.02810564 0.027854484 0.11234553 0.07376189

weight f4 [64, 32, 4, 4]
000000 93 b0 bd 3b 71 d7 f0 3c 4e e9 ca bc 07 85 41 bc
       0.0057888716 0.029399605 -0.024769451 -0.011811501
000010 9d 25 dd 3c 72 4d dc 3c a6 c2 4d bb b8 3b 00 3c
       0.026995474 0.026892398 -0.0031396537 0.007826738
000020 62 6d 55 3c 5e 26 07 bd e6 71 95 3b 19 ee e3 bb
       0.013026567 -0.032995574 0.004560697 -0.0069558737
000030 6e 5c cc 3c 78 13 55 3c f4 ec 19 bd e7 0f 34 bc
       0.024946418 0.01300513 -0.03757949 -0.01099012
000040 95 eb 34 3d fe d0 c6 3b 8b 05 b8 bc a6 0a 1d 3d
       0.04416998 0.0060673943 -0.02246358 0.038340233
000050 71 5d 06 bd 34 9c 6d 3c 5d bc 29 3d 99 5c 1b bd
       -0.032803956 0.014502574 0.041439403 -0.037930105
000060 42 00 5e bd 4a 16 90 3c b3 ea a8 3b de 3f 09 bd
       -0.054199465 0.017588753 0.0051549315 -0.033508174
000070 41 56 3b bd 03 bf b0 bc 0f 11 8a bc 1d e8 c2 bb
       -0.045736555 -0.021575456 -0.016853837 -0.00594808
000080 6f f1 b4 3c 90 24 6a bd 33 54 82 3c 0c 44 e2 bb
       0.02208778 -0.057163775 0.01590929 -0.0069050845
000090 ef 26 b8 3c 08 00 42 bd a9 bd 8a 3c 78 e5 f9 3c
       0.022479502 -0.04736331 0.01693614 0.030504927
0000a0 0d 8c 5d 3d 51 6e 86 bc ec be 3d bc 2f 54 b2 3c
       0.05408864 -0.016410025 -0.011581164 0.021768657
0000b0 ac 7a 4a 3c e1 20 19 3d 23 fe 92 bc f7 1e 0f bd
       0.012358349 0.03738487 -0.017943447 -0.03494164
0000c0 da 80 3a 3c 41 8c 4a bd 20 4d 04 bd 50 66 fe 3c
       0.01138326 -0.049450163 -0.032300115 0.031054646
0000d0 b1 70 20 3d ff a4 53 bb be e9 18 3d ac 54 0c 3c
       0.03916997 -0.003229439 0.03733229 0.008565109
0000e0 42 70 44 3c d8 cb 8e 3c 65 81 84 bc 08 ba 0f bb
       0.011989655 0.017431185 -0.016174981 -0.0021930952
0000f0 2e f5 a7 3c fe 2f f2 3c 94 3e 22 bd 7b 67 ba 3c
       0.020502653 0.0295639 -0.03961046 0.022754421
000100 d1 6c 6d bc bb 13 9f 3a 8b e2 e5 bc c5 5c d5 3c
       -0.014491276 0.0012136617 -0.028062126 0.026045213
000110 9d cd a8 3c a8 08 14 3d 22 1e 2d 3d ad 40 b8 bc
       0.020605857 0.036141068 0.042265065 -0.022491777
000120 60 ad 3b bc 48 bf 9a 3c 30 ab 3e 3d b1 85 8e 3c
       -0.01145491 0.018890038 0.046549976 0.017397733
000130 96 ee 8a 3d e5 31 92 bc bf fe 30 3d 4c 87 c6 bb
       0.06783788 -0.017846057 0.043211695 -0.006058609
000140 93 51 48 3d 4e e8 16 3a ab 59 29 3d 7f 45 1c 3b
       0.04890592 0.0005756662 0.04134528 0.0023845134
000150 44 21 d8 3c 9e 7c c4 bc b8 6f 12 3d de eb 33 3d
       0.02638305 -0.023985203 0.035751075 0.043926112
000160 a5 a1 99 3d d7 37 95 ba 7b ab fd 3b 9b df 50 bc
       0.075015344 -0.001138444 0.0077413893 -0.012748624
000170 88 26 3f bc 7c 47 c3 3b 42 96 a7 bc 69 87 c9 bc
       -0.011666901 0.0059594493 -0.02045739 -0.024600701
000180 b4 94 cb bc 6d 1d 35 3d 2e 79 3a 3d 08 d6 17 bc
       -0.02485118 0.044217516 0.045525722 -0.009267338
000190 e5 4b f2 3c 21 03 6a 3d f3 2c 2b bc de 24 75 bc
       0.029577205 0.05713189 -0.010447728 -0.014962403
0001a0 73 6c 72 3d f5 5e 87 3c de c4 5a bc e2 77 6a 3c
       0.059185456 0.016524771 -0.013352601 0.014310809
0001b0 56 1b 7c 3d 90 00 18 3d 30 c0 95 3d ce bc 18 bb
       0.061549507 0.03710991 0.073120475 -0.0023305896
0001c0 0f 90 17 3c 8c 9b 34 bd 74 29 69 bd f9 e7 5e bc
       0.009250655 -0.044093654 -0.0569243 -0.013605111
0001d0 15 b9 c5 3b 29 60 12 bd f8 0e 6d 3c 4c 3c 39 bd
       0.0060340264 -0.035736237 0.014468901 -0.04522352
0001e0 86 7b 37 bd 84 dd 31 bc 8e dd 01 3d 08 4a 59 bd
       -0.044795536 -0.010856036 0.03170543 -0.053049117
0001f0 a8 ce 96 3b 81 d6 d8 3c f5 87 aa bc 7a a3 db bc
       0.004602272 0.026469471 -0.020816782 -0.02681135
000200 5e 50 f8 3c 7e 90 11 bd c5 ad ba 3c b3 f6 88 bb
       0.03031176 -0.03553819 0.022787938 -0.0041797995
000210 e8 94 56 bd 7a b5 51 3c ff 45 36 3c 4f bd de 3a
       -0.0523881 0.012799615 0.011125087 0.0016993674
000220 18 06 68 bc ed 25 c5 3c b2 6f 0f 3c 4f 96 e0 3c
       -0.014161609 0.024065936 0.008754658 0.027415423
000230 23 1e 61 bc ff d4 7b bd 9d cb 65 bd 3b b5 36 bc
       -0.013740095 -0.061482426 -0.056102384 -0.011151607
000240 fe 35 14 bd 25 51 c3 3c 76 aa 28 bd eb b3 6d bd
       -0.036184303 0.023842404 -0.04117819 -0.05803291
000250 23 ce 88 3d 3f 51 af bb f5 d3 27 bd 89 34 15 bc
       0.066799425 -0.0053502615 -0.040973622 -0.009106764
000260 6c bd bf 3c 1a b6 b8 3c 96 77 23 bd fd d5 38 3c
       0.023405753 0.02254777 -0.039908968 0.0112814875
000270 87 b4 49 3b 79 22 dc 3c 33 f8 81 3d 10 6a 43 3c
       0.0030777769 0.026871907 0.06346168 0.011927143
000280 73 f8 3c bc 79 0e 01 3c 77 c6 91 bd 5d c6 83 bc
       -0.011533844 0.007876986 -0.07117932 -0.016085798
000290 f6 11 e7 bc 82 6b 67 bd 7f 27 b2 bc a3 b0 1a bd
       -0.028206807 -0.05649901 -0.021747349 -0.03776611
0002a0 37 3a 0e bd fc 73 bb 3c df d9 20 bd aa 61 b9 bc
       -0.034723487 0.022882454 -0.039270278 -0.022629578
0002b0 69 0f 00 bc 66 7b 23 3c 59 b9 e2 bb 38 fa 16 bd
       -0.007816174 0.009978151 -0.006919068 -0.03685972
0002c0 ed c1 12 bd d6 93 89 3c e5 1e 8e bc 88 6b 3d bd
       -0.035829473 0.016794126 -0.017348716 -0.046245128
0002d0 90 13 9c 3c 4b ca 28 bd 19 cf ea bc bf c5 26 bd
       0.019052297 -0.041208547 -0.028663205 -0.04071593
0002e0 ff 00 c7 bc 41 af f0 bc fa 66 72 bb ab 48 fc 3c
       -0.024292467 -0.029380443 -0.0036987648 0.03079637
0002f0 d4 88 18 bd fc c0 86 bb 39 e8 36 3c 25 35 16 3d
       -0.037239864 -0.004112361 0.011163765 0.036671776
000300 15 f6 53 bc 7b dc 94 bc d8 d4 a3 3b 04 a9 34 3d
       -0.0129370885 -0.01817154 0.004999738 0.0441065
000310 ea f8 31 3d 4f b7 09 3b 53 7e e4 3a 01 49 eb bc
       0.043450274 0.0021013801 0.0017432667 -0.028721334
000320 cb 45 80 3b f6 dc 0b 3d fe d2 c9 3c 35 9b 66 3d
       0.00391457 0.03414627 0.024636742 0.05630036
000330 11 10 7d 3d c4 f6 3a 3d bf 89 87 3c dd f4 dd 3c
       0.0617829 0.04564549 0.016545175 0.027094299
000340 f3 bf 43 bd d4 b2 2d 3c 97 08 29 bd 4b 38 1f bd
       -0.04779048 0.010601718 -0.041267958 -0.038872045
000350 9e 70 96 bc 67 86 09 3d 4e 1b 28 3c 6b c5 da 3c
       -0.018364247 0.03357544 0.010260416 0.026705464
000360 08 e9 0a b9 0c 17 dc bb 14 92 b8 3c 6f 0f a9 bc
       -0.00013247516 -0.0067166146 0.022530593 -0.020637242
000370 78 af 11 3b 00 9e 42 bd 03 5d 38 3c e1 ad cb bb
       0.0022229832 -0.04751396 0.0112526445 -0.0062157963
000380 e1 bc 0c bd b4 cb b2 bc db 88 f3 bb e9 45 aa 3b
       -0.034359816 -0.021825649 -0.007432086 0.005196322
000390 12 51 7a bc 3f 51 20 bd 54 dd 12 bc 0f 47 0f 3d
       -0.015278118 -0.039139982 -0.008963902 0.034979876
0003a0 41 c1 cc 3c 03 15 e1 ba 9c 94 9a 3c d6 84 6e 3c
       0.024994494 -0.00171724 0.01886969 0.014558038
0003b0 80 34 06 bb ac d7 1d bd 10 26 f0 bb 51 30 13 3d
       -0.002047807 -0.03853576 -0.007328756 0.03593475
0003c0 2e d1 a1 3c 5d df 02 bd 0f 61 73 3c bd b7 15 3c
       0.019753065 -0.031951297 0.014854684 0.009138045
0003d0 da 44 40 3d c5 1b 66 bc df 23 9b 3b 92 c2 be 3c
       0.046940662 -0.014044707 0.004734501 0.023286138
0003e0 19 90 4c 3d 2b b0 17 bc ed 58 20 3d 5c 2b 1e bc
       0.04994211 -0.00925831 0.039147306 -0.009653892
0003f0 0f 5b a3 bc 9e 10 65 3a 14 7d 00 3d 4b e3 a1 3c
       -0.019940881 0.0008738133 0.031369284 0.019761702

bias f4 [64]
000000 c3 67 65 ba 3e ba c3 3c 9b 11 21 3d 07 eb 26 3d
       -0.00087511184 0.023892518 0.03932343 0.040751483
000010 35 9e 1c bd 33 2a c8 3c 7b 15 fb bc 98 8b 84 bc
       -0.038236815 0.024434185 -0.030649891 -0.016179845
000020 30 eb 85 3b 04 f1 5e bc 25 dc b1 3c 75 15 22 bd
       0.0040868744 -0.013607267 0.021711418 -0.039571244
000030 e5 74 0e 3d c8 9b 14 bd 40 f2 01 3c b6 86 b2 3c
       0.034779448 -0.036281377 0.007931292 0.02179275
000040 de f9 f4 3c 75 fc 28 bd fb e1 0e bd 31 3e 1d 3d
       0.029904302 -0.041256387 -0.03488348 0.03838939
000050 ae eb 20 bd b4 d8 25 3d 82 fe 0e bd 81 3b bb bc
       -0.03928726 0.040489867 -0.034910686 -0.022855522
000060 a7 96 8f 3c da db d9 3c 32 de e6 3c 70 2e 04 bd
       0.017527891 0.026594091 0.028182123 -0.03227085
000070 a9 2b 2e bd 5e bf 0b bd 71 1a 27 bd 56 2e fb 3b
       -0.042522106 -0.03411805 -0.0407967 0.007665436
000080 e5 b5 ac bc 31 be 52 bc bb 2b 03 3d 69 d0 be 3c
       -0.021082828 -0.012862728 0.032024126 0.023292737
000090 da e4 13 3c 5a c4 a8 bc 36 9a 5d bb bd 6b c5 bc
       0.00902673 -0.02060144 -0.003381384 -0.024099225
0000a0 48 25 c6 3b 83 5c b2 bb 3d 4f 02 3d 85 e8 e1 bb
       0.0060469247 -0.005443157 0.03181385 -0.0068941736
0000b0 8b f4 b4 3c ea da 89 b9 13 3e 2f bd 7f a2 bb 3c
       0.022089263 -0.0002629378 -0.042783808 0.022904633
0000c0 17 64 15 bd a7 5a fa bc 23 f5 cc bc 05 ac 01 3d
       -0.036472406 -0.030560805 -0.025019234 0.03165819
0000d0 2e 97 2f 3d 8e 7c ec 3c e8 95 be bc 91 4a 56 3c
       0.042868786 0.028867986 -0.02326484 0.013079301
0000e0 f7 90 07 bd aa fc 80 3c a8 a6 0f bc 3c 25 95 bc
       -0.033097234 0.01574548 -0.008767761 -0.018206231
0000f0 2a 24 00 3c a9 0d 33 bd b9 76 fd bb 05 fa 22 3d
       0.007821122 -0.0437142 -0.0077351 0.03978922

weight f4 [64]
000000 1d ec 21 3f c8 26 66 3f 73 4e 95 3e fc f7 4f 3e
       0.63250905 0.89902925 0.29161415 0.20309442
000010 50 29 1f 3f 21 f9 c1 3e 48 9a 8c 3e 22 41 e3 3e
       0.6217241 0.37885383 0.27461457 0.4438563
000020 6e c6 15 3f cd 0d 0a 3e 64 84 2d 3f 41 af 31 3f
       0.58505905 0.13481827 0.6778014 0.6940804
000030 d4 15 42 3f 19 55 ff 3e a3 c3 87 3f 38 8d 76 3f
       0.7581456 0.49869612 1.0606579 0.9630923
000040 07 39 4d 3e f9 ae 4d 3f b3 c1 e7 3e a1 a1 67 3f
       0.20041285 0.8034511 0.45264968 0.90481
000050 49 33 61 3f a5 c9 a2 3e 27 29 92 3e 77 97 bd 3e
       0.8796888 0.31794468 0.28547022 0.3702962
000060 7e 0d ff 3e 95 12 2e 3e 33 cf 3e 3f 72 a6 6c 3f
       0.4981498 0.16999276 0.7453491 0.92441475
000070 55 f4 3f 3f 63 ce 1c 3d df ba c8 3e 5a 23 54 3f
       0.74982196 0.038282763 0.3920507 0.8286644
000080 69 b2 95 3c 02 a2 e3 3d d8 54 30 3f e3 26 65 3f
       0.01827355 0.11114885 0.6887946 0.8951246
000090 2e ae 2d 3f 64 0e c4 3e 9d 7a 48 3f 72 9d 6b 3f
       0.678439 0.3829223 0.78312093 0.9203712
0000a0 70 10 fe 3c 08 02 6c 3e 20 49 92 3c f5 6b ba 3e
       0.031013697 0.2304765 0.017857134 0.3641049
0000b0 07 bd e4 3e 72 7c 5a 3f c8 4e a1 3d d7 9b 35 3e
       0.44675466 0.8534614 0.078763545 0.1773523
0000c0 f6 af 00 3e 0b 69 2f 3f 07 09 cc 3e 03 3e 82 3f
       0.12567124 0.6851966 0.39850637 1.0175174
0000d0 8f 00 4d 3f a6 de ba 3e a8 8f 1c 3f 03 71 a2 3e
       0.8007898 0.36497992 0.611567 0.31726846
0000e0 8d 49 01 3e 1a 9d 54 3f d8 88 39 3f bd fb 1e 3f
       0.12625714 0.8305222 0.7247443 0.6210287
0000f0 29 19 9e 3e 9b 05 02 3f e4 64 f2 3e 59 9c ff 3a
       0.3087857 0.50789803 0.47342598 0.0019501551

bias f4 [64]
000000 08 b2 ee 3c d8 3e 83 3d 7b ee 04 3c b1 57 80 3c
       0.029137626 0.06408471 0.008113499 0.015666815
000010 90 68 53 3c 90 6e 15 bd 02 d6 40 bd a1 89 56 3d
       0.012903348 -0.036482394 -0.047079094 0.052377347
000020 5e 18 47 bc 24 b2 81 3c ec f8 50 3d cd 0a bb bc
       -0.012151806 0.015832014 0.05101864 -0.022832299
000030 80 9e 44 3c 47 4f f5 3c ca 91 96 bd 12 c5 b2 bd
       0.01200068 0.029945029 -0.07352026 -0.087289944
000040 21 4f 3b 3c ce a4 9e 3c ef 1d 63 3c a6 1e 4e 3d
       0.01143244 0.019365694 0.013862117 0.050322197
000050 9b 46 54 bd ae 21 11 3d f0 55 2b bc 47 62 78 bc
       -0.051825147 0.03543251 -0.010457501 -0.01516015
000060 0a eb cb 3c fa e3 f9 3a 2c 64 91 bc 4d 64 30 bc
       0.024892349 0.0019065135 -0.017747961 -0.010766101
000070 84 a6 e2 bd 58 3b 1a bd c2 70 1a bd ce 36 43 3d
       -0.110669166 -0.03765425 -0.03770519 0.047659688
000080 a8 35 f9 bc cb 53 1f bc 1f 52 a8 bb d4 00 8e 3b
       -0.030421093 -0.009724568 -0.0051367427 0.004333595
000090 48 3c 15 3c b4 86 41 3c d1 3e 91 bc a6 91 87 bd
       0.00910861 0.011811901 -0.017730149 -0.06619577
0000a0 d5 3b 02 bb 58 c7 8d 3b 25 0d 1e bc 5b 60 20 bd
       -0.0019872088 0.004326742 -0.009646689 -0.03915439
0000b0 11 3c 50 bc 41 63 9d bd 33 95 d4 3c 8c b4 1c 3b
       -0.012709633 -0.07684947 0.02595005 0.0023911325
0000c0 6b a8 36 3d 2b 7c 61 bc 0f d5 c4 bb 89 96 fd b9
       0.04459421 -0.013762514 -0.006006844 -0.00048368078
0000d0 ac c6 07 3c 2a 3e ea bc ee 50 ab 3c 76 85 e0 bc
       0.008287113 -0.028594095 0.020912614 -0.02740739
0000e0 27 2f 81 bc 95 77 a8 bd cf 1c 00 be 97 d0 19 bc
       -0.015769554 -0.082259335 -0.1251099 -0.009388111
0000f0 e6 86 64 3d ac d9 36 bd d3 a3 9b 3c db 55 7f bc
       0.05579271 -0.04464118 0.018999016 -0.015584434

running_mean f4 [64]
000000 be 59 1a 3f 70 62 ed 3e 1e bb c8 3e 56 61 0a 3e
       0.60293186 0.46364164 0.3920526 0.13513693
000010 b1 ce 2b 3f fe d6 0a 3f 28 03 3e 3e ef 3c 12 bf
       0.6711226 0.542343 0.18555892 -0.5712423
000020 f4 d3 8e 3f 43 aa 4a 3e 53 32 a5 bd 64 ff 2e 3f
       1.1158433 0.19791512 -0.08066239 0.68358445
000030 63 7e 8e 3f 9c 46 36 3f ad 26 33 40 7c 29 4b 3f
       1.113232 0.7120149 2.7992356 0.79360175
000040 62 f3 dc 3e b3 ff 29 3f 4a 20 1f 3f 41 42 d6 3f
       0.43154436 0.6640579 0.62158644 1.6738969
000050 22 54 79 3f ab 9f 84 ba ac 30 0a 3e 16 10 d1 3e
       0.97394 -0.0010118386 0.1349513 0.40832585
000060 2b 8a 32 3e ac fa 15 3e 84 2e ab 3e 09 00 de 3f
       0.1743552 0.14646405 0.33433926 1.7343761
000070 a8 3d 14 3f 50 82 c8 3d 8e 03 06 3e b6 9f 62 3f
       0.5790658 0.0979048 0.13087294 0.8852495
000080 0c 2a 51 3e a1 33 0d 3d bf d4 53 bf 94 8e b4 be
       0.20426196 0.034473065 -0.827465 -0.35265028
000090 68 5b 07 bf 3a 2e d2 3e 05 c5 c9 be d5 cd 81 3f
       -0.5287385 0.41050893 -0.39408126 1.014094
0000a0 50 3c 1e be 61 c0 9b 3e af 1b 59 3d 5c 17 65 3e
       -0.15452695 0.3042021 0.053004917 0.22372192
0000b0 c0 56 00 3e 0a 67 b4 3e 94 c2 23 3e ef 72 6e 3e
       0.12533092 0.35234863 0.15992194 0.23286031
0000c0 44 bd 1d be 5c c2 ee 3d e3 c1 9d 3b 9c a0 9a 3f
       -0.1540423 0.11658165 0.004814373 1.2080264
0000d0 f6 cc f7 3f 0c f5 9b 3e 4a 45 01 bf a0 2a 39 3e
       1.9359424 0.30460393 -0.5049635 0.18082666
0000e0 f0 ef c0 3d 94 d8 a5 3e ca 62 43 3f 3e 80 87 3e
       0.094207644 0.32391798 0.76322615 0.2646503
0000f0 89 85 8b 3e ff a9 90 3e cb fc 0c 3f 0e 14 d0 3d
       0.27250317 0.28254697 0.5507323 0.10160075

running_var f4 [64]
000000 fd c6 30 3f 5f 76 81 3f c7 45 34 3d f3 3d 29 3d
       0.6905363 1.0114249 0.044011857 0.041318845
000010 4c 66 23 3f 34 42 06 3e 5b f1 28 3e 29 27 18 3e
       0.6382797 0.13111192 0.1649832 0.14858688
000020 8b 9a aa 3e ef 84 ba 3c 93 90 22 3e 00 6b e2 3e
       0.33321032 0.022768466 0.15875463 0.4422226
000030 ac 06 90 3f 7d d9 36 3e 9c 52 d5 3f ea be 69 3f
       1.1252036 0.17856403 1.6665835 0.91306937
000040 12 91 81 3d 7c c0 ec 3e 32 da af 3e 41 f8 29 40
       0.06326498 0.46240604 0.34346157 2.6557772
000050 c8 63 03 3f 98 0a 89 3e 7e 20 9f 3d 20 08 3d 3e
       0.5132413 0.26765895 0.07769869 0.1846013
000060 29 75 51 3e b2 42 6a 3d 57 cf 55 3e 14 27 47 40
       0.2045485 0.05719251 0.20879875 3.1117601
000070 58 2f 8c 3f 5c f4 90 3c 30 71 8b 3e e8 af eb 3e
       1.0951948 0.017694645 0.27234793 0.46032643
000080 d7 a6 e8 3c 36 c6 f7 3c 5e e3 68 3f dd 7e 22 3f
       0.028399868 0.030245882 0.90971935 0.6347483
000090 7c 0a ae 3d 8e 06 82 3e 7a a6 34 3e c5 f7 8f 3f
       0.084980935 0.25395626 0.17641631 1.1247488
0000a0 ed b4 65 3c bc ec c4 3d 8d f2 8b 3c 77 c8 5f 3e
       0.014020187 0.09615466 0.01708343 0.21853815
0000b0 3e c7 3c 3e 8c 2c e8 3e ef ea f1 3c 53 6f c6 3c
       0.1843538 0.45346487 0.02953097 0.024223005
0000c0 d2 57 52 3c 48 07 84 3e 8e 04 35 3d 0d 99 a4 3f
       0.012838321 0.25786805 0.044193797 1.2859207
0000d0 3a 21 5e 40 fd 74 19 3e 80 21 76 3f 7b d0 ac 3d
       3.470778 0.14986034 0.96144867 0.08438202
0000e0 b2 5d 39 3d 8c 0d 82 3e 83 91 df 3e ac c2 cd 3e
       0.04525537 0.2540096 0.43665704 0.40187585
0000f0 b1 ad 56 3d ba 14 d4 3e 82 cb 2a 3e c2 f8 96 3c
       0.05241174 0.41422063 0.16679195 0.018429164

weight f4 [64, 64, 4, 4]
000000 7a 9c 4c 3c 69 fb 06 3e e5 9c 07 3d eb 62 98 bc
       0.012488479 0.13181843 0.03310861 -0.018601855
000010 d3 77 be 3c 04 dc cd 3a 1c c1 32 3b f6 18 06 bd
       0.023250496 0.0015705829 0.0027275747 -0.03273865
000020 eb 94 0d 3b 1f 8f 3c 3c 8c 33 23 bd d6 60 19 3c
       0.0021603655 0.011508732 -0.03984408 0.009361466
000030 e8 8b f3 bb 7b 36 23 3a 67 d3 45 bb 8c 89 49 bd
       -0.0074324496 0.0006226075 -0.003018582 -0.04920344
000040 66 e3 98 3d fe 38 9d 3d d2 1c c4 bc 1e 1b a8 3d
       0.07465248 0.07676886 -0.023939524 0.08208297
000050 6a ce b3 bb e6 fb a9 bd a1 b6 b1 bc f1 17 b7 bd
       -0.005487253 -0.08299999 -0.02169353 -0.08940113
000060 b3 5e 62 3b 6e ed 68 bd f1 75 9c 3d 88 25 72 3c
       0.0034541308 -0.056867056 0.07639683 0.014779456
000070 b7 8a 9c bc 37 c2 25 bd 3c 44 51 bd 44 aa e1 3d
       -0.019109113 -0.04046842 -0.051090464 0.11018804
000080 95 6f 66 3c 78 2c 20 3d 2c 1c 0f bc d5 b6 94 bb
       0.014064689 0.03910491 -0.008734744 -0.004538397
000090 74 c1 a1 3b c0 c8 21 bd a7 a4 bf bc 7d e1 7e bb
       0.0049363915 -0.03949809 -0.023393942 -0.0038891726
0000a0 81 87 13 bc e5 5d 82 bc fb af 52 3c 82 73 00 3c
       -0.009004475 -0.015913913 0.01285934 0.007840039
0000b0 56 9b 14 3c f3 8d d2 bb 81 02 b6 bc 08 95 a5 bc
       0.009070238 -0.006425613 -0.02221799 -0.020212665
0000c0 ed 73 4d bd 1b 5c 50 3b a7 fc 47 bc 9e 11 0f bd
       -0.050159384 0.003179318 -0.012206233 -0.03492891
0000d0 5f 70 23 bd 72 7f 4e bc 77 96 d2 bc 72 59 9e 3c
       -0.039902087 -0.0126036275 -0.025706513 0.01932976
0000e0 8f 59 3a bc a9 8b 4b 3b fe 19 1d bd c0 bd 62 3d
       -0.0113738915 0.0031058586 -0.038354866 0.05535674
0000f0 61 c2 ce bc 7a 2c d0 bc 96 23 12 bd 63 bb bf bc
       -0.025239171 -0.025411833 -0.03567847 -0.023404783
000100 6d c1 86 3d 44 91 9d 3d 1d 33 16 bd cd 4a 1d bd
       0.06579862 0.07693723 -0.03666984 -0.038401414
000110 64 d6 2c 3d a4 5a 3f bd 01 67 c4 3c 73 f0 12 bd
       0.042196646 -0.0467173 0.023974897 -0.03587384
000120 ab a0 94 bc a8 ff e7 bb 6d 00 10 3c 2b 6b 75 ba
       -0.018143019 -0.007080037 0.008789164 -0.00093619776
000130 8f ea 66 bd 17 d5 51 bc 1f ec 65 bd f4 e6 77 bc
       -0.056376036 -0.012807152 -0.056133386 -0.015130747
000140 9a 3e 29 3c a0 40 96 3c 04 4b 9c 3b 64 bf 9a 3c
       0.010329867 0.018341362 0.0047696847 0.01889009
000150 b0 6e 33 bc f5 fa d2 bc ac 15 7c 3c 58 5f b3 3b
       -0.010951683 -0.025754431 0.015386026 0.0054740123
000160 7c 7a f4 bb 65 f8 51 3c 94 ea 6d 3b 51 3b 2b 3b
       -0.0074608903 0.0128155695 0.003630315 0.0026127885
000170 44 bd fc bc a2 02 29 bd d2 46 25 bd f0 c3 03 bd
       -0.030851968 -0.041262276 -0.040350743 -0.032169282
000180 5c 2e 06 3d 55 9a 12 3d aa 9b 98 bc 62 71 97 3c
       0.032759055 0.035791714 -0.018628914 0.018486682
000190 e7 98 10 3c b1 96 70 bb 6c 52 2b bd 97 ad bf bc
       0.008825517 -0.0036710913 -0.04182665 -0.023398204
0001a0 92 b9 f2 ba c4 c7 6b 3c 13 39 bb bc 89 de 3d bc
       -0.0018518439 0.01439089 -0.022854364 -0.011588701
0001b0 23 b3 ce bc 3c 24 9d bb 77 1e 1b 3c 43 5d 64 3b
       -0.025231903 -0.0047955792 0.009467713 0.0034845627
0001c0 ff 0b e9 bc 37 60 5e bd d0 6a 4b bd 2a fe ab bb
       -0.028448103 -0.054290976 -0.04966241 -0.0052488046
0001d0 7e bd 3d bd 10 2a 9d 3c 4f 69 fc 3c 63 85 81 3c
       -0.046323292 0.019185096 0.030811934 0.015810674
0001e0 b3 d7 50 3b 7e 17 1c 3b ff af e9 3c 16 bf 28 3c
       0.0031866848 0.0023817713 0.028526304 0.010299465
0001f0 7f 51 57 bd 02 30 6b 3c d7 bd 1b 3d 3f f7 88 3c
       -0.052567955 0.014354708 0.038022842 0.016719459
000200 7c 11 12 bd d2 db 4d 3d 87 bf df bc 12 4a 04 3d
       -0.035661206 0.050258465 -0.027313007 0.0322972
000210 29 83 9f bc 14 11 02 bd b0 dc 0a bd db 39 a0 bc
       -0.019471722 -0.03175457 -0.03390187 -0.019558838
000220 61 9a b7 3c 60 8f eb bc b8 29 60 bc 70 9d e3 bb
       0.02241248 -0.02875489 -0.0136818215 -0.0069462582
000230 ad 6f 1a bd b8 01 2d bc b2 31 89 3c f3 40 cc 3c
       -0.03770416 -0.010559492 0.01674733 0.024933314
000240 af 61 11 3d 33 9e 09 bd a0 6d 21 bb 5b 65 da bb
       0.03549355 -0.033598136 -0.0024631992 -0.0066649145
000250 82 4a d8 3c 78 5c c2 bc fb 76 2b 3b a9 bf 01 bc
       0.026402716 -0.023725733 0.0026163447 -0.0079192305
000260 e3 03 6a 3c fb 23 55 bc 37 98 bf 3a 4a ff 87 bc
       0.014283153 -0.013009067 0.0014617507 -0.016601223
000270 f4 96 c3 3c db d0 28 bc 3b 7f d9 3b 11 ac 17 bc
       0.023875691 -0.010303701 0.0066374815 -0.009257332
000280 b1 41 64 bd 9a d0 90 bd 8d b7 e6 bc 94 11 52 bd
       -0.05572671 -0.070710376 -0.028163696 -0.051286295
000290 7c aa 4e bd dd b2 fd 3c 67 1c cb 3c 81 66 6d 3d
       -0.050455555 0.030969078 0.024793817 0.057959083
0002a0 52 89 e3 bb 6f 5b 72 bc 37 82 86 3d 18 fb 39 3d
       -0.00694386 -0.014792307 0.06567805 0.045405477
0002b0 7f ab cd bd c3 1d 43 bd 76 15 54 3b 31 26 9d 3d
       -0.10042476 -0.047635805 0.0032361425 0.076733
0002c0 ca de 23 3c 2a 5c 8c 3b 11 6c 04 bc 25 85 4f 3c
       0.0100018475 0.0042834477 -0.008082406 0.0126660215
0002d0 0a e6 4f 3b 49 63 ad bd 89 bb 89 bd 10 ac 36 3c
       0.0031722807 -0.08466203 -0.067252226 0.011149421
0002e0 a5 d2 a1 3c 13 9a 19 bd da e7 a7 3b 34 1c 8a bd
       0.019753763 -0.037500452 0.0051240744 -0.067436606
0002f0 e4 62 24 bd 3f cb 98 bc 49 e5 57 bd 3e a1 6f bb
       -0.040133372 -0.018651603 -0.052708898 -0.0036564614
000300 15 df be 3c df af d7 3d 9d b4 10 3d 0f 5e 86 bb
       0.023299733 0.105315916 0.035328496 -0.004100568
000310 72 62 bc 3c 09 1f 17 bd 5c a6 20 bd aa 32 18 bd
       0.022996161 -0.03689483 -0.039221153 -0.037157692
000320 ff 04 02 3d 63 31 58 bd 33 b9 5a bc fd 38 8b bc
       0.031743046 -0.052781474 -0.013349819 -0.016994948
000330 de 7e 08 bd cf 2f ec bc 1b 05 04 bc 2e 2e a4 3b
       -0.033324115 -0.02883139 -0.008057858 0.005010388
000340 37 c5 30 bd 8f 27 2e 3b 19 d5 26 bd 3d 1b 3e bc
       -0.04315683 0.0026573872 -0.04073057 -0.011603174
000350 54 c5 27 bc c3 3d b3 ba 79 3e ef bc fe b7 1c 3c
       -0.010239918 -0.0013675023 -0.029204594 0.0095653515
000360 e6 40 7d 3c b8 cd 9a bb 74 4f d5 3c 71 a8 fe 3c
       0.0154573675 -0.0047242306 0.026038863 0.031086178
000370 19 20 84 ba aa 0b 2a 3d b4 f2 98 bc 89 fa 90 3a
       -0.0010080367 0.04151503 -0.018670417 0.0011060993
000380 95 29 78 ba b1 43 02 bd 81 b8 8a bd 6d 63 98 3c
       -0.00094666454 -0.031802837 -0.067734726 0.018602097
000390 10 f1 32 bd 7c 56 1f be 61 01 55 bd cc ec d2 bc
       -0.043686926 -0.15560335 -0.05200327 -0.02574768
0003a0 72 d6 50 bd 7a e7 d3 bc df 5b 50 bc b0 30 17 bb
       -0.05098576 -0.025867213 -0.012717216 -0.0023069791
0003b0 66 1c 43 bd 44 da 47 bd ea 1a 16 bd 27 05 8c bd
       -0.047634505 -0.04879214 -0.03664676 -0.0683692
0003c0 2c d9 41 bd 38 39 99 bd a2 a8 6a bd 9b 40 c0 bc
       -0.047326252 -0.07481617 -0.057289727 -0.023468306
0003d0 5e 2e a3 bc a4 76 64 bd bd e8 48 bd 5b df 51 3c
       -0.01991957 -0.055777207 -0.04905008 0.0128096
0003e0 c4 f0 ae 3c 44 3b 9e bc 57 80 7c bd 3f 72 87 bd
       0.02135504 -0.01931537 -0.061645832 -0.066135876
0003f0 a4 3c 6a ba fc cd 80 bd 0d 90 c4 bc e6 2f 77 bc
       -0.0008935428 -0.062892884 -0.02399447 -0.0150871035

bias f4 [64]
000000 16 50 f8 3b d4 dd 5c bb cb 1f 3a 3b 16 3d a8 3c
       0.0075779064 -0.0033701556 0.0028400298 0.02053694
000010 fe ae 3a bc 4c 7b 86 3c 96 04 d2 bb 2e d1 05 3b
       -0.01139426 0.016416214 -0.006409238 0.002041887
000020 ce 7d eb 3c 2e 8a 9b bc 27 0d ab 3c ea b4 41 3c
       0.028746512 -0.018986788 0.020880295 0.011822918
000030 13 c6 a2 3a e4 50 ae 3b 3b e8 f5 3b 6d dc 83 bb
       0.001241865 0.0053197015 0.0075044907 -0.0040240795
000040 75 4b 78 3a 84 4d 9b 3c b6 c7 ec 3c c5 76 cd bc
       0.0009471693 0.01895786 0.028903823 -0.025081048
000050 b4 3a b9 3c a0 df a6 3c e2 ff 3d bc 69 e6 c1 3c
       0.022611 0.020370305 -0.011596652 0.023669438
000060 52 1e fb 3c f8 81 81 bb 48 fb d9 3b f5 30 24 3c
       0.030654106 -0.003952261 0.0066522695 0.010021438
000070 19 4f c4 bc b3 9c 90 3c 83 2e 2c 3c 8e 6a f4 bc
       -0.023963498 0.017652845 0.010509136 -0.029835965
000080 a0 5a fd bc c8 a2 d2 3c 49 9d 07 3c 2c 4c 53 bc
       -0.030927002 0.025712386 0.008277246 -0.012896579
000090 1e 23 cc bc 60 95 c9 bc 66 43 5d bc 84 58 40 3c
       -0.024919089 -0.02460736 -0.013504839 0.011739854
0000a0 c8 40 02 bc 6d d4 ac bc 91 13 00 3c 4c 3a c0 bc
       -0.007950015 -0.021097386 0.007817165 -0.023465298
0000b0 81 88 80 bc 02 59 95 3c 8c 11 bc bc cd 3b 21 bc
       -0.01569009 0.018230919 -0.022957586 -0.009840918
0000c0 97 b0 de bc 61 94 55 3c dc 58 a8 bc e8 57 fb 3c
       -0.027183814 0.013035865 -0.020550184 0.030681565
0000d0 cf ef bc 3b e2 d9 6b bc 3b 47 e4 bc 97 7b 5b 3c
       0.005765892 -0.014395209 -0.027865997 0.013396165
0000e0 5a 55 7a bb 53 3d 7e ba 6c 73 e1 3c dc af f4 bc
       -0.0038197846 -0.0009698469 0.027520858 -0.029869013
0000f0 b5 b3 5d 3c 3e fc 10 bc b0 26 2d 3c d0 89 f1 bb
       0.013531615 -0.008849202 0.010568306 -0.007371165

weight f4 [64]
000000 13 9c 35 3f a8 d7 13 3f 6b 85 4b 3e 36 2a 1a 3e
       0.70941275 0.5775094 0.19875114 0.15055165
000010 8b ee 9b 3e 62 e7 6f 3e 05 5b a9 3e cb e7 61 3e
       0.3045543 0.2342811 0.33077255 0.22061078
000020 aa 11 06 3c 41 5f 38 3f f2 13 d5 3e e3 f5 cd 3e
       0.008182922 0.72020346 0.4161678 0.4022666
000030 52 50 0c 3d 82 de a5 3d e7 44 70 3f 24 8d 87 3b
       0.034256287 0.080990806 0.93855137 0.0041366983
000040 53 4f 96 3c 32 12 3a 3f 47 5d 1b 3f 84 9b 98 3e
       0.018348372 0.72684014 0.60689205 0.2980615
000050 fa 70 e5 3e e3 ec 41 3f 63 9d af 3e d3 e3 4c 3e
       0.44812757 0.75752085 0.34299764 0.20008783
000060 fa 9e 58 3f b8 18 5b 3f bc 36 61 3b 25 c0 12 3f
       0.8461758 0.8558459 0.00343649 0.5732444
000070 a1 b6 6f 3f a4 3d c3 3c 03 a3 a3 3e 56 cc 4e 3e
       0.93638045 0.023833103 0.31960306 0.20195135
000080 37 44 45 3f c1 d7 a4 3e 5c e0 2f 3d 40 b7 27 3f
       0.7705721 0.32195857 0.042938575 0.6551399
000090 8b 0b a0 3e 42 58 32 3f 50 ec 75 3e 29 86 dc 3e
       0.31258807 0.6966592 0.24015927 0.43071106
0000a0 85 de 9a 3e 9c 82 90 3d 86 5e 36 3f 0d d8 40 3f
       0.30247894 0.07056162 0.7123798 0.7532967
0000b0 8e 34 16 3f 8d 5c 7c 3f ec 14 8b 3b 35 f5 4e 3f
       0.5867394 0.9857872 0.0042444374 0.80842906
0000c0 53 d3 59 3f 9c ad 1b 3f a6 61 8c 3f 22 ae 25 3f
       0.8508808 0.6081178 1.09673 0.6471883
0000d0 af 9c 1c 3f 2f 80 15 3f ae 06 16 3f 09 13 1c 3f
       0.6117658 0.5839872 0.5860394 0.60966545
0000e0 35 61 61 3f db 68 64 3e c2 1f 4c 3f 5a 84 81 3f
       0.8803895 0.22305624 0.7973596 1.0118515
0000f0 a3 dc 13 3f 5e 52 19 3f 7c 49 1a 3f c9 16 40 3f
       0.5775854 0.5989131 0.6026838 0.7503477

bias f4 [64]
000000 49 4f 30 bc b5 4c d3 3e c6 1f c7 3c ab e0 87 bc
       -0.010761091 0.4126946 0.024307143 -0.016586622
000010 fa 8b 04 3e 45 e8 bd 3d a5 2f 27 3e 7f 52 9a bc
       0.12944022 0.092728175 0.16326769 -0.018838165
000020 25 6a 9a bc a2 a0 89 3d e2 38 22 3d 6a 8b 88 3d
       -0.018849442 0.067200914 0.03960503 0.06667216
000030 2d c0 21 3e 49 7c 3e bd 59 c5 92 3d 4c 38 a0 3e
       0.15795965 -0.046505246 0.07166547 0.3129295
000040 26 f9 16 bd d3 08 09 be 38 9d 70 be 14 7d 0e 3d
       -0.0368587 -0.13382272 -0.23497474 0.034787253
000050 f0 80 06 be 20 42 c5 bd ca cc 3a 3e fc d3 de 3c
       -0.13135123 -0.09631753 0.18242183 0.027200691
000060 34 0a 68 bd b3 b0 3f 3e 6a c0 02 bc b3 14 f2 bb
       -0.056650355 0.18719749 -0.007980445 -0.0073877214
000070 32 3e 7e 3d 44 89 46 bd 8d 88 1c 3d 0e 39 a5 bb
       0.062071033 -0.04847075 0.038216162 -0.005042202
000080 4b 09 ab bc 1e 7b 37 3d 37 76 b6 bd 25 18 c9 3d
       -0.020878455 0.044795148 -0.089092664 0.09819058
000090 9b 08 00 3e c4 c0 8a bd 88 db c3 3c 6c 51 1b bd
       0.12503283 -0.067750484 0.023908392 -0.037919447
0000a0 c2 68 65 bc c5 8e 13 be 7f 7d 5d 3d 5c 21 62 bc
       -0.014002027 -0.14409931 0.05407476 -0.013801899
0000b0 4f a8 74 3d ea bd 8e 3b 3e 57 1c bc 8c e7 81 3e
       0.059730824 0.0043561356 -0.0095422845 0.2537197
0000c0 40 df 33 3e 76 3f 04 be 9d 54 a1 3d 6f bb 7a bd
       0.17565632 -0.12914833 0.07877467 -0.061213907
0000d0 70 8c 93 3c 57 f2 ea 3d 7d fb 50 3d ed ff c7 3d
       0.018011302 0.11472004 0.051021088 0.09765611
0000e0 3c e3 79 bd 4e e0 22 bd 96 c3 14 bc 76 17 01 3f
       -0.061007723 -0.039764695 -0.009079834 0.50426424
0000f0 a2 8f 3d 3e a0 c9 c4 bc 17 1c 9c 3d 68 8f 89 bd
       0.18511823 -0.024021924 0.07622545 -0.06716806

running_mean f4 [64]
000000 74 1e 57 bf ac c3 ab 3e 5c 1e 73 3f 49 0c 1a 3f
       -0.8403084 0.33547723 0.949682 0.60174996
000010 35 71 04 3d 7c a5 86 3f d2 c7 0b 3f 6e 00 bf 3f
       0.032334525 1.0519252 0.54601777 1.4922006
000020 0b 5e a8 3e 42 15 4a 40 16 86 83 3f ce 92 53 3f
       0.3288425 3.1575475 1.0275295 0.8264588
000030 79 6b 48 3f 67 d5 3c 3f c8 4c 26 bf d0 41 a0 3e
       0.7828899 0.73763126 -0.6496091 0.3130021
000040 13 e1 fa 3e 17 de 0d bd 20 0c 00 40 88 65 aa 3f
       0.48999843 -0.03463563 2.00074 1.3312235
000050 23 a7 1d 3e 80 b3 0c 40 e8 b9 7d 3f 1b 73 ac 3f
       0.15395789 2.1984558 0.99111795 1.3472627
000060 88 fe 3d 40 2e 6a 07 40 20 5c 36 3e b4 cd c8 3f
       2.9686604 2.1158557 0.1780858 1.5687776
000070 b6 08 08 40 a5 1b 9c 3d 59 28 ee 3f 35 fb 95 bf
       2.1255317 0.0762246 1.8606063 -1.1717287
000080 b8 88 b4 3f d1 f0 65 3e ee 7d 14 3f 51 24 32 40
       1.4104223 0.22455145 0.58004653 2.7834666
000090 e8 9b af 3f d8 78 26 3f 0e fe c3 3f e4 23 92 3f
       1.3719454 0.6502814 1.5311906 1.1417203
0000a0 fa 69 41 3d d5 77 99 3f 87 fe 83 3f 1a 07 1c 40
       0.047220208 1.1989695 1.031205 2.4379334
0000b0 48 22 06 40 57 16 9a be b7 1b b8 3e cb a1 98 40
       2.0958424 -0.3009517 0.35958645 4.76975
0000c0 be 78 c7 3d 3e 40 0c 40 f8 31 d7 3f 0c 98 37 40
       0.097398266 2.191421 1.6812124 2.8686552
0000d0 42 8c c9 3f e2 50 ef 3e 41 18 25 40 fd 8b 2e 40
       1.5745928 0.46741396 2.5796053 2.7272942
0000e0 a0 54 34 40 0e 52 dc 3f 7d 92 f6 3f 78 17 30 40
       2.817665 1.7212541 1.9263455 2.7514324
0000f0 17 9b fd bf f2 34 d3 3f c8 43 72 3f 60 90 a7 3f
       -1.9812955 1.6500533 0.94634676 1.3090935

running_var f4 [64]
000000 62 d8 02 40 dc 74 0e 40 05 00 b4 3e 15 90 02 3e
       2.044457 2.2258825 0.35156265 0.12750275
000010 b7 03 47 3f cf c4 a1 3e 9e 9d ec 3e 66 5b 67 3f
       0.77740043 0.31595466 0.46214002 0.9037384
000020 cb fc 1e 3d 3f 51 19 40 89 dc fc 3e 78 f1 a7 3f
       0.0388153 2.3955839 0.49387005 1.3120565
000030 29 ee 74 3e 70 c3 84 3e 63 29 00 40 c3 21 61 3e
       0.23918976 0.25930357 2.002526 0.21985535
000040 95 a9 88 3d de d8 84 40 80 8f b7 3f 81 3d e0 3e
       0.0667297 4.151473 1.4340668 0.43796924
000050 12 b0 40 3f b0 38 8f 3f d2 7e 9b 3f 7b 2a 36 3f
       0.7526866 1.1189175 1.2148077 0.7115857
000060 8f 73 44 40 51 d1 2b 40 5b b9 0b 3d df 85 a2 3f
       3.0695531 2.6846507 0.034112316 1.2697104
000070 94 2c ef 3f 97 54 6a 3d de c2 ed 3e b1 a5 03 3f
       1.8685479 0.057209577 0.46437734 0.514247
000080 5b 54 dd 3f 9b e6 d0 3e 2a 53 31 3e 67 bb fe 3f
       1.7291368 0.40800938 0.17316881 1.9900941
000090 7c 20 a0 3e 88 50 af 3f 2a fd 31 3f 83 f9 64 3f
       0.31274784 1.3696451 0.6952692 0.89443225
0000a0 77 51 73 3f 3f d4 4b 3e 69 ff 77 40 2a f0 6a 40
       0.9504618 0.19905184 3.874964 3.6709085
0000b0 a5 8b 45 40 7a 70 90 40 af cb a4 3d 50 a7 9a 40
       3.0866482 4.51373 0.08046662 4.832924
0000c0 2a 2a 79 40 ef 74 dc 3f 87 ca 6b 40 ca 03 21 40
       3.8931985 1.7223185 3.6842363 2.5158563
0000d0 96 43 34 40 36 f1 4a 3f 6a 57 a3 3f ed f1 5a 40
       2.816625 0.7927431 1.2761052 3.421016
0000e0 6b 97 ff 3f 8a ee 3e 3f d2 3f ca 3f 52 3e d1 40
       1.9968084 0.7458273 1.5800726 6.5388575
0000f0 38 db b3 3f 47 25 97 3f 1d 81 e2 3f 53 9b bf 3f
       1.4051275 1.1808251 1.7695652 1.4969276

weight f4 [10, 320]
000000 ed 2b 29 3d 33 3c 5b 3b 36 c9 34 bd 70 d2 01 3b
       0.041301657 0.003345263 -0.044137202 0.0019809268
000010 f5 80 86 bc f2 78 42 3c 0b a7 df bc ca fb 81 3c
       -0.016418913 0.011869656 -0.027301332 0.015867133
000020 89 97 ff bb e1 a4 1e 3d fa 5b 92 3c 3f 57 a1 3b
       -0.007800047 0.03873146 0.017866123 0.0049237306
000030 c9 07 c3 bc 29 64 e4 3c d3 66 52 bd f8 b7 42 bd
       -0.023807423 0.027879791 -0.051367592 -0.047538728
000040 3f 6d 83 3c f1 4f 68 3c f3 60 96 bc e0 db f6 3c
       0.016043304 0.014179216 -0.018356776 0.030134141
000050 59 a5 d6 3b 22 ec 5e 3c eb 30 10 3d d8 05 4d 3d
       0.0065504727 0.013606103 0.0352029 0.0500544
000060 b4 3d 81 bc 13 fe 17 3a f2 31 b8 bc 73 4a 92 bc
       -0.015776493 0.0005798053 -0.022484753 -0.017857766
000070 f7 ec 3c bd 38 24 61 bd 0f 51 5e 3d 13 b6 a2 3c
       -0.046124425 -0.05496618 0.054276522 0.01986221
000080 bf 97 2e 3c 0e 5c 5b 3b b6 a2 3b bc 99 a5 80 3c
       0.010656296 0.0033471617 -0.0114523675 0.015703963
000090 65 46 49 bd be 48 b7 bc d1 76 08 3d 7a 08 fd 3b
       -0.0491394 -0.022373553 0.033316437 0.0077219578
0000a0 a6 42 41 3d 47 d0 a5 bc 49 35 92 bc 31 98 d3 3c
       0.0471827 -0.020240916 -0.017847674 0.025829406
0000b0 e8 03 24 bd 2a c1 9f 3c c2 5c 00 3d 4f 76 4d 3d
       -0.040042788 0.019501287 0.03133846 0.050161656
0000c0 94 39 54 bd 18 64 60 bd 44 a5 34 bb ba 82 14 3c
       -0.051812723 -0.054782957 -0.0027564326 0.009064371
0000d0 e5 f8 a0 3b fe c9 1d bd 06 bf 02 bd 1d 1a 0e bb
       0.004912483 -0.038522713 -0.031920455 -0.0021683045
0000e0 35 57 e3 3c 0d eb 5a 3d 35 93 a7 3c 23 16 14 bd
       0.027751544 0.05344682 0.020455936 -0.036153924
0000f0 9b 40 3a bd e7 18 de bc 66 8a a4 3c d1 99 3f 3d
       -0.04547177 -0.027111484 0.020085525 0.04677755
000100 ed 57 5b 3d b5 99 5a 3d 7e e0 5f 3d bc e6 87 bb
       0.05355065 0.053369243 0.05465745 -0.0041473787
000110 1a 4a d6 3c 8c 06 2e 3c f6 35 33 bd 66 c9 d8 bc
       0.026158381 0.010621678 -0.043752633 -0.026463222
000120 a4 c4 3e bc f7 c0 86 bb b5 9a 9d 3b d8 a1 30 3c
       -0.0116435625 -0.0041123587 0.0048097023 0.010780774
000130 07 31 54 3d e3 68 02 bd 3e 51 f2 bc 3e 2f 5e 3d
       0.05180457 -0.03183831 -0.029579755 0.054244272
000140 f9 32 9c bc 27 22 c8 3c a9 d0 54 bd 57 46 11 bd
       -0.019067274 0.024430348 -0.051956806 -0.035467472
000150 54 fd 82 3c ea eb cd bc 9e 9f 08 bc 66 10 3d bd
       0.015989937 -0.025136907 -0.008338837 -0.046158217
000160 e2 60 0e 3d d6 8b 2d 3c 85 0f 50 3d 01 47 d2 bc
       0.034760363 0.0105924215 0.05079605 -0.025668623
000170 6c 32 1d bb 64 9b 33 3c 39 06 90 3c 83 2f e6 b9
       -0.0023986353 0.010962341 0.017581092 -0.00043904418
000180 02 63 2e 3b df c4 d9 3c 30 80 0a ba 78 4d 02 3c
       0.0026609306 0.026583133 -0.00052833837 0.00795304
000190 dc e1 f6 bc 69 d6 fb bc ae de 3e 3d 4e 40 26 ba
       -0.030136995 -0.030741887 0.046599083 -0.00063419796
0001a0 33 ab 63 3d ac ee da 3c e5 41 d2 3c 95 28 37 bc
       0.05558319 0.026725136 0.025666187 -0.011179109
0001b0 17 f9 2f 3d e1 fd 1f bd 51 9c 26 bd fc 70 2f 3d
       0.04296216 -0.039060477 -0.04067642 0.04283236
0001c0 a7 db c3 bc 74 88 96 bc a7 e1 b4 bc 90 cc 14 3d
       -0.02390845 -0.018375613 -0.022080256 0.0363279
0001d0 05 60 74 3c d4 45 76 3c 85 c3 43 3d dc c6 ee 3b
       0.014915471 0.015031297 0.047793884 0.0072868895
0001e0 d6 27 03 3d 13 7c 1f bd 56 33 15 3d c5 4c 03 3d
       0.032020412 -0.038936686 0.03642591 0.032055635
0001f0 7e 2f 00 3d ef 84 03 3d fe ab 93 3c 74 81 5b bd
       0.031295292 0.032109197 0.018026348 -0.053590253
000200 ad 12 b4 3c 34 17 52 bd e1 2e 14 bd 08 a9 cb bb
       0.021981562 -0.05129166 -0.03617752 -0.0062152185
000210 42 78 1a 3d 4b 1a 62 3d 00 29 8e 3c ba 22 eb 3b
       0.037712343 0.055200856 0.017353535 0.0071757706
000220 71 0c 3a 3d ed 35 1e bd bd 05 1b 3d 88 c0 45 3d
       0.04542202 -0.038625646 0.03784727 0.048279315
000230 1c a6 92 bc 01 a5 f4 3c 9c e9 4d 3d 8e 8b fa bc
       -0.017901473 0.029863836 0.050271615 -0.030584123
000240 e7 67 0a 3d d0 9e 26 3c a6 f6 1b bc 39 f5 33 3c
       0.033790495 0.0101697 -0.009519255 0.010983759
000250 b3 3b 78 bc 21 e7 28 3d 14 bf 3e bc 38 b3 25 3d
       -0.015150952 0.041236047 -0.011642236 0.04045412
000260 aa 30 08 bd f2 5b a9 3c 9e 68 36 bc aa e4 c9 3c
       -0.033249535 0.020673726 -0.011133341 0.024645168
000270 de 1e e9 3b 63 f4 08 3d 90 3d 58 bd f0 61 2f 3d
       0.0071142754 0.03343619 -0.052793086 0.04281801
000280 40 26 bf 3c b5 d0 2d bd b9 b6 05 3d c7 d4 e3 bc
       0.023333669 -0.042435367 0.03264496 -0.027811421
000290 ec b8 be bc b6 3b b0 bb c9 02 23 bd f7 cd 29 3d
       -0.023281537 -0.005378212 -0.039797578 0.04145619
0002a0 ce fa 70 3c a1 ba f1 3b 5b 82 29 3d 9a fe 40 bd
       0.014708234 0.007376984 0.041384082 -0.047117807
0002b0 0a 39 88 bc dd b8 46 bd 30 f8 c9 3c 99 8a 74 bc
       -0.01662876 -0.048516143 0.024654478 -0.014925622
0002c0 b0 fd ce bc dd 5b 0c 3d 47 c8 a5 bc 1e 5a 7c bb
       -0.025267452 0.034267295 -0.020237101 -0.0038505862
0002d0 ef 22 7f 3c 0d a1 47 bc 53 63 ee 3c b4 69 14 3d
       0.015572294 -0.012184394 0.029100096 0.03623362
0002e0 17 23 ce 3c 5e 95 2f 3d 59 5b 21 3c 74 bd 0f 3d
       0.025163217 0.042867057 0.009848439 0.035092786
0002f0 cb c3 37 3d 5d b7 fd bc ea b4 cc 3c 8e 20 3c 3c
       0.044864457 -0.030971223 0.02498861 0.011482371
000300 81 cb 70 3c 1f 29 4b 3d 79 78 7f bc 0c a1 45 bd
       0.014696957 0.049599763 -0.015592688 -0.04824929
000310 34 1c 01 3c ec 29 2b 3d 5e 87 14 bd 30 27 3d 3d
       0.007880259 0.041788027 -0.03626191 0.04617995
000320 52 44 bb 3c e1 3c 3d 3c 95 3a 8e bc c8 8b 41 bd
       0.022859726 0.011550159 -0.017361918 -0.047252446
000330 d4 d9 d9 3c e9 8e c4 bc d1 c1 40 bd 5c a5 b1 3c
       0.026593126 -0.023993926 -0.047059838 0.021685295
000340 33 7e 8d bc 20 c5 39 3d b6 22 a1 3c ee 2b 5e bd
       -0.01727209 0.04535401 0.019669872 -0.054241113
000350 ba 1b 5e 3d 71 2f 1b bd 88 65 40 bd ba 90 a5 bb
       0.05422566 -0.03788704 -0.046971828 -0.005052653
000360 31 04 12 bd 6f 9d 2a 3a c1 ff 11 3d 27 92 dd 3c
       -0.03564853 0.0006508445 0.035644297 0.02704723
000370 e0 d0 20 bd 87 47 2f bd 71 c8 b6 bc 9b cc 13 bd
       -0.0392617 -0.042792823 -0.022312375 -0.0360838
000380 0b 19 63 bd a1 b4 ca 3c d9 79 f6 3c 2c cc a1 3c
       -0.055443805 0.024744334 0.030087398 0.019750677
000390 85 21 a8 bc 80 94 10 bd 51 93 33 3d bb 2f bc bc
       -0.020523796 -0.03529787 0.043841664 -0.022971978
0003a0 b3 8e 54 bd ee f1 d4 bc db 2c c7 3c 7b ab 48 3c
       -0.0518939 -0.025994267 0.024313381 0.012247915
0003b0 0e 10 d9 bc 2f b1 19 bd 4f c2 2f 3c 09 a1 a8 3c
       -0.026496913 -0.03752249 0.010727479 0.0205846
0003c0 a7 8e 2b 3c c3 28 1a bd d3 b8 27 bd 0a 20 f1 bc
       0.010471023 -0.03763653 -0.040947746 -0.029434223
0003d0 26 1d 43 3d c0 6c 48 3c c5 04 45 3d 11 e2 80 bc
       0.04763522 0.012232959 0.04810025 -0.015732797
0003e0 1a 29 b1 3b e1 5f 46 bd 03 53 4b bd 03 8d c0 3c
       0.005406511 -0.04843128 -0.049639713 0.02350474
0003f0 1a e9 60 bd 2d af d4 bb 64 94 06 bd 04 9f a7 3c
       -0.054909803 -0.006490609 -0.03285636 0.020461567
